…
Various files include modifications (c) NVIDIA CORPORATION & AFFILIATES.  All rights reserved.

This container image and its contents are governed by the NVIDIA Deep Learning Container License.
By pulling and using the container, you accept the terms and conditions of this license:
https://developer.nvidia.com/ngc/nvidia-deep-learning-container-license

Downloading https://www.cs.toronto.edu/~kriz/cifar-10-python.tar.gz to ./data/cifar-10-python.tar.gz
170499072it [00:04, 35399506.69it/s]
Extracting ./data/cifar-10-python.tar.gz to ./data
Files already downloaded and verified
WideResNet(
  (input_block): cbrblock(
    (cbr): Sequential(
      (0): Conv2d(3, 16, kernel_size=(3, 3), stride=(1, 1), padding=same, bias=False)
      (1): BatchNorm2d(16, eps=1e-05, momentum=0.1, affine=True, track_running_stats=True)
      (2): ReLU()
    )
  )
  (block1): conv_block(
    (scale): Conv2d(16, 160, kernel_size=(1, 1), stride=(1, 1), padding=same)
    (layer1): cbrblock(
      (cbr): Sequential(
        (0): Conv2d(16, 160, kernel_size=(3, 3), stride=(1, 1), padding=same, bias=False)
        (1): BatchNorm2d(160, eps=1e-05, momentum=0.1, affine=True, track_running_stats=True)
        (2): ReLU()
      )
    )
    (dropout): Dropout(p=0.01, inplace=False)
    (layer2): cbrblock(
      (cbr): Sequential(
        (0): Conv2d(160, 160, kernel_size=(3, 3), stride=(1, 1), padding=same, bias=False)
        (1): BatchNorm2d(160, eps=1e-05, momentum=0.1, affine=True, track_running_stats=True)
        (2): ReLU()
      )
    )
  )
  (block2): conv_block(
    (layer1): cbrblock(
      (cbr): Sequential(
        (0): Conv2d(160, 160, kernel_size=(3, 3), stride=(1, 1), padding=same, bias=False)
        (1): BatchNorm2d(160, eps=1e-05, momentum=0.1, affine=True, track_running_stats=True)
        (2): ReLU()
      )
    )
    (dropout): Dropout(p=0.01, inplace=False)
    (layer2): cbrblock(
      (cbr): Sequential(
        (0): Conv2d(160, 160, kernel_size=(3, 3), stride=(1, 1), padding=same, bias=False)
        (1): BatchNorm2d(160, eps=1e-05, momentum=0.1, affine=True, track_running_stats=True)
        (2): ReLU()
      )
    )
  )
  (pool1): MaxPool2d(kernel_size=2, stride=2, padding=0, dilation=1, ceil_mode=False)
  (block3): conv_block(
    (scale): Conv2d(160, 320, kernel_size=(1, 1), stride=(1, 1), padding=same)
    (layer1): cbrblock(
      (cbr): Sequential(
        (0): Conv2d(160, 320, kernel_size=(3, 3), stride=(1, 1), padding=same, bias=False)
        (1): BatchNorm2d(320, eps=1e-05, momentum=0.1, affine=True, track_running_stats=True)
        (2): ReLU()
      )
    )
    (dropout): Dropout(p=0.01, inplace=False)
    (layer2): cbrblock(
      (cbr): Sequential(
        (0): Conv2d(320, 320, kernel_size=(3, 3), stride=(1, 1), padding=same, bias=False)
        (1): BatchNorm2d(320, eps=1e-05, momentum=0.1, affine=True, track_running_stats=True)
        (2): ReLU()
      )
    )
  )
  (block4): conv_block(
    (layer1): cbrblock(
      (cbr): Sequential(
        (0): Conv2d(320, 320, kernel_size=(3, 3), stride=(1, 1), padding=same, bias=False)
        (1): BatchNorm2d(320, eps=1e-05, momentum=0.1, affine=True, track_running_stats=True)
        (2): ReLU()
      )
    )
    (dropout): Dropout(p=0.01, inplace=False)
    (layer2): cbrblock(
      (cbr): Sequential(
        (0): Conv2d(320, 320, kernel_size=(3, 3), stride=(1, 1), padding=same, bias=False)
        (1): BatchNorm2d(320, eps=1e-05, momentum=0.1, affine=True, track_running_stats=True)
        (2): ReLU()
      )
    )
  )
  (pool2): MaxPool2d(kernel_size=2, stride=2, padding=0, dilation=1, ceil_mode=False)
  (block5): conv_block(
    (scale): Conv2d(320, 640, kernel_size=(1, 1), stride=(1, 1), padding=same)
    (layer1): cbrblock(
      (cbr): Sequential(
        (0): Conv2d(320, 640, kernel_size=(3, 3), stride=(1, 1), padding=same, bias=False)
        (1): BatchNorm2d(640, eps=1e-05, momentum=0.1, affine=True, track_running_stats=True)
        (2): ReLU()
      )
    )
    (dropout): Dropout(p=0.01, inplace=False)
    (layer2): cbrblock(
      (cbr): Sequential(
        (0): Conv2d(640, 640, kernel_size=(3, 3), stride=(1, 1), padding=same, bias=False)
        (1): BatchNorm2d(640, eps=1e-05, momentum=0.1, affine=True, track_running_stats=True)
        (2): ReLU()
      )
    )
  )
  (block6): conv_block(
    (layer1): cbrblock(
      (cbr): Sequential(
        (0): Conv2d(640, 640, kernel_size=(3, 3), stride=(1, 1), padding=same, bias=False)
        (1): BatchNorm2d(640, eps=1e-05, momentum=0.1, affine=True, track_running_stats=True)
        (2): ReLU()
      )
    )
    (dropout): Dropout(p=0.01, inplace=False)
    (layer2): cbrblock(
      (cbr): Sequential(
        (0): Conv2d(640, 640, kernel_size=(3, 3), stride=(1, 1), padding=same, bias=False)
        (1): BatchNorm2d(640, eps=1e-05, momentum=0.1, affine=True, track_running_stats=True)
        (2): ReLU()
      )
    )
  )
  (pool): AvgPool2d(kernel_size=7, stride=7, padding=0)
  (flat): Flatten(start_dim=1, end_dim=-1)
  (fc): Linear(in_features=640, out_features=10, bias=True)
)

 Total # of parameters:  17117754

Epoch =  1: Cumulative Time = 52.251, Epoch Time = 52.251, Images/sec = 956.6157836914062, Training Accuracy = 0.495, Validation Loss = 1.022, Validation Accuracy = 0.632
Epoch =  2: Cumulative Time = 99.555, Epoch Time = 47.304, Images/sec = 1056.657470703125, Training Accuracy = 0.685, Validation Loss = 0.718, Validation Accuracy = 0.757
…
