…
2023-11-07 12:55:00.342934: I tensorflow/stream_executor/platform/default/dso_loader.cc:49] Successfully opened dynamic library libcublas.so.11
2023-11-07 12:55:02.369645: I tensorflow/stream_executor/platform/default/dso_loader.cc:49] Successfully opened dynamic library libcublasLt.so.11
2023-11-07 12:55:02.386143: I tensorflow/stream_executor/platform/default/dso_loader.cc:49] Successfully opened dynamic library libcudnn.so.8
mean:  120.70756512369792
stddev:  64.1500758911213
Model: "sequential"
_________________________________________________________________
Layer (type)                 Output Shape              Param #   
=================================================================
conv2d (Conv2D)              (None, 32, 32, 64)        3136      
_________________________________________________________________
dropout (Dropout)            (None, 32, 32, 64)        0         
_________________________________________________________________
conv2d_1 (Conv2D)            (None, 16, 16, 64)        16448     
_________________________________________________________________
dropout_1 (Dropout)          (None, 16, 16, 64)        0         
_________________________________________________________________
conv2d_2 (Conv2D)            (None, 16, 16, 32)        18464     
_________________________________________________________________
dropout_2 (Dropout)          (None, 16, 16, 32)        0         
_________________________________________________________________
conv2d_3 (Conv2D)            (None, 16, 16, 32)        9248      
_________________________________________________________________
max_pooling2d (MaxPooling2D) (None, 8, 8, 32)          0         
_________________________________________________________________
dropout_3 (Dropout)          (None, 8, 8, 32)          0         
_________________________________________________________________
flatten (Flatten)            (None, 2048)              0         
_________________________________________________________________
dense (Dense)                (None, 64)                131136    
_________________________________________________________________
dropout_4 (Dropout)          (None, 64)                0         
_________________________________________________________________
dense_1 (Dense)              (None, 64)                4160      
_________________________________________________________________
dropout_5 (Dropout)          (None, 64)                0         
_________________________________________________________________
dense_2 (Dense)              (None, 10)                650       
=================================================================
Total params: 183,242
Trainable params: 183,242
Non-trainable params: 0
_________________________________________________________________
Epoch 1/100
500/500 - 11s - loss: 1.7568 - accuracy: 0.3542 - val_loss: 1.4074 - val_accuracy: 0.4954
Epoch 2/100
500/500 - 2s - loss: 1.3957 - accuracy: 0.4970 - val_loss: 1.2001 - val_accuracy: 0.5785
…
